…
ct/train\n",
      "Downloading https://ultralytics.com/assets/Arial.ttf to '/root/.config/Ultralytics/Arial.ttf'...\n"
     ]
    },
    {
     "name": "stderr",
     "output_type": "stream",
     "text": [
      "100%|██████████| 755k/755k [00:00<00:00, 17.3MB/s]\n"
     ]
    },
    {
     "name": "stdout",
     "output_type": "stream",
     "text": [
      "Overriding model.yaml nc=80 with nc=4\n",
      "\n",
      "                   from  n    params  module                                       arguments                     \n",
      "  0                  -1  1      2320  ultralytics.nn.modules.conv.Conv             [3, 80, 3, 2]                 \n",
      "  1                  -1  1    115520  ultralytics.nn.modules.conv.Conv             [80, 160, 3, 2]               \n",
      "  2                  -1  3    436800  ultralytics.nn.modules.block.C2f             [160, 160, 3, True]           \n",
      "  3                  -1  1    461440  ultralytics.nn.modules.conv.Conv             [160, 320, 3, 2]              \n",
      "  4                  -1  6   3281920  ultralytics.nn.modules.block.C2f             [320, 320, 6, True]           \n",
      "  5                  -1  1    213120  ultralytics.nn.modules.block.SCDown          [320, 640, 3, 2]              \n",
      "  6                  -1  6   4604160  ultralytics.nn.modules.block.C2fCIB          [640, 640, 6, True]           \n",
      "  7                  -1  1    417920  ultralytics.nn.modules.block.SCDown          [640, 640, 3, 2]              \n",
      "  8                  -1  3   2712960  ultralytics.nn.modules.block.C2fCIB          [640, 640, 3, True]           \n",
      "  9                  -1  1   1025920  ultralytics.nn.modules.block.SPPF            [640, 640, 5]                 \n",
      " 10                  -1  1   1545920  ultralytics.nn.modules.block.PSA             [640, 640]                    \n",
      " 11                  -1  1         0  torch.nn.modules.upsampling.Upsample         [None, 2, 'nearest']          \n",
      " 12             [-1, 6]  1         0  ultralytics.nn.modules.conv.Concat           [1]                           \n",
      " 13                  -1  3   3122560  ultralytics.nn.modules.block.C2fCIB          [1280, 640, 3, True]          \n",
      " 14                  -1  1         0  torch.nn.modules.upsampling.Upsample         [None, 2, 'nearest']          \n",
      " 15             [-1, 4]  1         0  ultralytics.nn.modules.conv.Concat           [1]                           \n",
      " 16                  -1  3   1948800  ultralytics.nn.modules.block.C2f             [960, 320, 3]                 \n",
      " 17                  -1  1    922240  ultralytics.nn.modules.conv.Conv             [320, 320, 3, 2]              \n",
      " 18            [-1, 13]  1         0  ultralytics.nn.modules.conv.Concat           [1]                           \n",
      " 19                  -1  3   2917760  ultralytics.nn.modules.block.C2fCIB          [960, 640, 3, True]           \n",
      " 20                  -1  1    417920  ultralytics.nn.modules.block.SCDown          [640, 640, 3, 2]              \n",
      " 21            [-1, 10]  1         0  ultralytics.nn.modules.conv.Concat           [1]                           \n",
      " 22                  -1  3   3122560  ultralytics.nn.modules.block.C2fCIB          [1280, 640, 3, True]          \n",
      " 23        [16, 19, 22]  1   4392744  ultralytics.nn.modules.head.v10Detect        [4, [320, 640, 640]]          \n",
      "YOLOv10x summary: 400 layers, 31,662,584 parameters, 31,662,568 gradients, 171.0 GFLOPs\n",
      "\n",
      "Transferred 1123/1135 items from pretrained weights\n",
      "\u001b[34m\u001b[1mDDP:\u001b[0m debug command /usr/bin/python3 -m torch.distributed.run --nproc_per_node 2 --master_port 38067 /root/.config/Ultralytics/DDP/_temp_k3etip6y138601747482128.py\n",
…
